model/keypoint_classifier/keypoint_classifier.tflite (tflite, 6416 bytes, 6 tensors)

dense_2/bias f4 [4]
00000000: ffc3 dfbe 7ccd 90be 1cff d03e 0f62 983e
-0.4370422 -0.28281772 0.40819633 0.29762313

dense_1/bias f4 [10]
00000000: 18cb 053f a6c1 303d 98a8 eb3e 4659 133f
00000010: 6470 e33e a22b 353e 9be5 963e b9dc 0b3f
00000020: ea54 e93c a7fa 88be
0.5226302 0.043153428 0.46027064 0.57558095 0.44421685 0.17692426 0.2947205 0.5463367
0.028482873 -0.26753733

dense/bias f4 [20]
00000000: adf0 38bf 47cb 23bf e429 5bbf 6492 e5be
00000010: 5b80 39bf d365 4ebf 6786 23bf 0d09 a6be
00000020: 0d08 12bf 8cde dcbe 9296 eabe feae cabe
00000030: 4428 4cbf 6cbf f9be c6f8 2ebf b96e 0cbf
00000040: 5004 073f f41b 33bf 1c5e e63e 4ba3 29bf
-0.7224224 -0.6398205 -0.85610795 -0.4483825 -0.7246148 -0.8062412 -0.63876957 -0.3242878
-0.57043535 -0.4313854 -0.45818 -0.39586633 -0.7974894 -0.48778856 -0.6834835 -0.5485645
0.52740955 -0.6996453 0.44993675 -0.6626479

sequential/dense/MatMul f4 [20, 42]
00000000: b2ce 71be c860 523e 1b24 873f cfb4 9ebe
00000010: fc11 1a3f 16a7 43be 5c67 653e 7b3d 2bbd
00000020: 4851 b83d cc15 8abe bec8 c33e f458 64bd
00000030: e34d ef3d 7cb8 77be 8ed6 13be 4c74 263e
00000040: b719 6dbe a946 0d3e c0fa f83e 7a91 6cbc
00000050: 37df f93d b422 6fbd db57 31be f7d0 223e
00000060: 0007 6dbe 46a9 213e d470 ff3e c15b a8be
00000070: 2fbd ac3d e7eb bcbd 9b40 55be 03d2 303e
00000080: a5ab 87be d762 a03d f0fc e73e 66af 3fbe
00000090: 08d7 5b3e 4236 acbd 052c a93b 9b6b 5a3d
000000a0: 7317 39bd 496b d9bc 696f 50be b867 6fbe
000000b0: 2b29 16bd 0764 853d 40b8 c13a a511 973d
000000c0: 48c0 0d3d a093 783d 9711 9c3d 8507 cd3d
000000d0: d580 0f3b 1e14 7c3d 9cdf 053c 87a8 033d
000000e0: 26f6 7fbb 4f55 93bc e867 21bd f643 73bc
000000f0: 2f05 8b3b aa24 443d 7b5b 983c 1919 393d
00000100: ce47 1fbb 8cbd f13c 01ce 82bd 271c 363d
00000110: 5ea6 b83d ea59 a13d 49f5 623d 06d9 803d
00000120: 67ef e2bc ca5c ad3d bf5c 05be 05d7 8abf
00000130: a7d3 d93d 7bda 5d3d b241 833d 37ed 593d
00000140: 2d34 92be 1b3b 4bbe a5e6 c0be 903f 67bd
00000150: 2ab8 3cbe b0ab 823e 0e2a 1dbd c3cf 9ebe
00000160: 6c39 e3bb 6644 8cbc cc72 ba3c 5744 b53c
00000170: d7e9 983b 7d18 4c3d a91b eabc 7d09 86bd
00000180: bd61 44bc 96f0 23bd 6121 8bbc dbd6 0fbd
00000190: cca3 e93b fd59 91bc 8aab 85bd 02a3 a6bc
000001a0: 6531 14ba 58d2 14bd 9bf7 f43c 2bf8 05bd
000001b0: f1ae 0b3d 88ee acbc e714 bfbd ae39 7dbb
000001c0: 682a 423b dab6 ddbc 46b1 2c3d 0a77 48bb
000001d0: f791 0f3d 7071 3c3c e395 9ebd baf9 d43c
000001e0: f470 ec3c cd41 88bf d529 b03d 64f3 5ebc
000001f0: 036a 0bbc 7dfa 7f3d c80b 87be fe93 8b3e
00000200: d2aa 5e3b ce7d 6e3e f1e8 cc3c 018c ee3d
00000210: 033b c03c 0fa6 c73d e440 1b3c 2de7 c53d
00000220: c327 693c 49e7 ac3d 4a25 7f3b 127f 893d
00000230: ceeb 103d 1617 7a3d 3eda f03c 5dbc 8abf
00000240: f82b fd3c 6f84 d13d 8bcc 22bc ee12 343d
00000250: ef77 c3bc 2baa 2d3d a5cb eabc ef47 a03c
00000260: 4192 273c 136f bb3d 7a56 1ebd 414f 813d
00000270: 096c 08bc 6025 66bd e9f3 adbb 3779 b9bb
00000280: eba8 bd3c 4434 d23d b358 fbbb 0f22 af3d
00000290: 2457 03bd a379 93bd b200 d33c f920 5bbc
000002a0: 64e4 273e c2f3 4bbe 6002 df3b a1eb 5ebe
000002b0: 32fe 1d3d 8e02 363d b429 263d 8d99 b43d
000002c0: 41ad d13d f2a1 de3d a055 a23b 15ac 1c3d
000002d0: 7c1b 433c 297c 083d 73cc cf3c dccf 16bd
000002e0: 91bf af3c 3526 81bd 65dc 093d 279e 443d
000002f0: c5f0 7bbb 6cc5 0e3d e4df acbd 2d1e 5ebd
00000300: c3e2 e8bd 4602 bebd 574a 793d e2c8 dc3d
00000310: 521a 03bd dc76 6a3d a377 ffbd fd8b 97bc
00000320: c5ac 09be f188 16ba 6618 ed3d 59d5 d03d
00000330: d12e d13c 246e a93d 80dd 0bbb fb60 b93d
00000340: b056 61be 87a6 a8bf 505c 733d 00b6 1d3d
00000350: 811c 16bf c650 10bd d247 e7be 9fbf 31be
00000360: d825 38be 3104 adbe 0e09 5cbd 1f0e c4bd
00000370: c360 9fbe 51a8 95be 50e3 33be 1e88 98bd
00000380: 277c a23d 3b24 c33d cdb2 2f3e d668 8b3d
00000390: 33dc a6be 56b0 48bd fcfe cdbd a5be 09bd
000003a0: 4fd1 0a3e 8864 f03d e8a3 2d3e 533d 043e
000003b0: 0d90 29be ef95 b9be 7581 97bd 6c8f 92bd
000003c0: 77b8 0c3e 94f4 173e dc57 2c3e 8974 423d
000003d0: 1749 5abe 71c0 0ebe 0b36 7ebe 161f 98bd
000003e0: d8a5 a2bd 1b7b fe3c 6be2 e5bc 7ffe 23bd
000003f0: 40d0 93bd 5c44 313e a5c2 1d3b 1310 8ebe
-0.23614004 0.20544732 1.0557894 -0.3099732 0.6018369 -0.19106707 0.2240271 -0.04180668
0.08999878 -0.26969755 0.38239092 -0.055748895 0.116847776 -0.24191469 -0.14437315 0.16255301
-0.2315434 0.13796486 0.48628807 -0.014438981 0.12200778 -0.058382705 -0.1731867 0.15900026
-0.23147202 0.15787229 0.4989077 -0.32882503 0.084345214 -0.09224682 -0.20825426 0.17267613
-0.26498142 0.07831352 0.45310163 -0.18719253 0.21468747 -0.08408786 0.0051627182 0.053325277
-0.04518838 -0.026540415 -0.20355 -0.2337941 -0.036660355 0.06513219 0.0014779642 0.07376412
0.0346072 0.06068766 0.076205425 0.100112 0.0021896858 0.061542623 0.008170988 0.032143142
-0.0039056628 -0.017985014 -0.039405733 -0.014847746 0.0042425613 0.047886528 0.018598309 0.04518995
-0.0024304274 0.029509328 -0.063869484 0.044460442 0.09016107 0.07878478 0.055409703 0.06291394
-0.027702047 0.08464964 -0.13023661 -1.0846869 0.106360726 0.054163437 0.06409015 0.05320474
-0.28555432 -0.19846766 -0.37675968 -0.056457102 -0.18429628 0.25521612 -0.038370185 -0.31017885
-0.0069343355 -0.017122459 0.022759818 0.022127314 0.0046665478 0.04982804 -0.028577643 -0.065447785
-0.011986193 -0.040024363 -0.01698369 -0.03511701 0.007130122 -0.017743105 -0.06526859 -0.0203414
-0.00056531123 -0.036333412 0.029903224 -0.032707375 0.034102384 -0.021109834 -0.09330159 -0.0038639116
0.0029627327 -0.02706473 0.04216125 -0.003058853 0.035051312 0.011501655 -0.077434324 0.025997985
0.028862454 -1.0645081 0.08601729 -0.013607834 -0.008509162 0.062494744 -0.26376176 0.27261347
0.0033976329 0.23290178 0.025013419 0.116477974 0.023465639 0.0974847 0.00947592 0.09663234
0.014230671 0.08442552 0.0038932138 0.0671369 0.03538113 0.061057173 0.029400941 -1.0838734
0.030904755 0.10230338 -0.009936462 0.043963365 -0.0238609 0.042398613 -0.028661558 0.01956555
0.010227741 0.09152045 -0.03865669 0.063139446 -0.008326539 -0.056187987 -0.0053086174 -0.005660202
0.023151835 0.10263875 -0.007670486 0.08551418 -0.032065526 -0.07200935 0.025757167 -0.0133745605
0.16395718 -0.19917205 0.006805703 -0.21769573 0.038572498 0.04443603 0.040567115 0.0881835
0.10238124 0.10870732 0.004954055 0.038250048 0.011908408 0.033321533 0.025366044 -0.036819324
0.02145365 -0.063061155 0.03365745 0.04800239 -0.003844307 0.034856245 -0.08441141 -0.054227997
-0.11371376 -0.092777774 0.06086191 0.10780503 -0.032007523 0.05724226 -0.12473991 -0.018499369
-0.13444813 -0.0005742452 0.11576919 0.10196943 0.02553502 0.08272961 -0.002134174 0.09051701
-0.22005725 -1.317582 0.059414208 0.038503647 -0.58637244 -0.03523328 -0.45171982 -0.17358254
-0.17983186 -0.3379226 -0.053719573 -0.09573006 -0.3112851 -0.29229978 -0.17567182 -0.07447837
0.079338364 0.09528395 0.17158051 0.06807105 -0.32589874 -0.048996292 -0.100584 -0.03362908
0.13556407 0.11737925 0.16957057 0.12914018 -0.16558857 -0.36247203 -0.07397739 -0.07156262
0.13742243 0.14839393 0.1683039 0.047474418 -0.21316944 -0.13940598 -0.24825303 -0.07427804
-0.079417884 0.03106456 -0.028062066 -0.04003763 -0.07217455 0.17311233 0.0024072316 -0.2774664

sequential/dense_1/MatMul f4 [10, 20]
00000000: d430 e93d 9f81 e83d 2863 e1bf a281 083f
00000010: a978 78bf 4bec c8bc a93f 99bf 2ecb cfbe
00000020: 2f78 60be 91da 003f 7c34 953d 4eb0 1abe
00000030: 048c 86bd 2961 87be bae1 0bbe a9ee fabe
00000040: 0aad f6be a66e 0c3d 0462 d03c 7994 16be
00000050: 6b9b a0bd 9dd1 423f a202 393d 84fd 063f
00000060: daff 493f 4aa2 ecbb b59b ae3e 0fbb 81be
00000070: b27b 953d ead3 ac3e 0725 1d3f 1b01 083f
00000080: 6bab bbbd bc4e 7a3d 4d83 ed3d 16c8 a4bc
00000090: 0790 6a3e 5d8b 58bd 292d f3be f375 493f
000000a0: 3d0a 1f3f ffb9 99bf 7ce4 883f c491 92bf
000000b0: 8ef9 b4bf e065 1a3e ac29 9ebf a1f1 8dbe
000000c0: dcd1 833e 112a 68bf 4244 9bbf f783 c0bd
000000d0: 7a4e 6c3f c48e 533d 7f48 3f3d b566 69be
000000e0: f924 713d 21f5 1c3d 82d4 23bf 40a2 b7be
000000f0: 5278 4fbe 847a 893e e902 6a3e 8c79 9e3f
00000100: 79c7 6e3e f529 2dbf 8e6c 863e ae94 6a3e
00000110: c51f 243d ede0 313f 7b59 483e 457d 813e
00000120: 3e6d 2dbf b45c 84b9 2a03 12be c761 273e
00000130: d542 cdbe a392 a2bc 62d1 d4bf 0f1c cc3e
00000140: 89c3 733f 6ae8 7bbf ca58 4dbf 80d5 ab3d
00000150: 24c2 8abf 2951 903f e95e 71bf eb5b b13e
00000160: 43c9 1c3f 581b bbbe 2517 6cbf 49a7 b5bd
00000170: af70 683f fe94 913e 6288 1b3f 9558 193f
00000180: f043 0ebe 10a5 583f 28ad e7bc 41dd 8ebe
00000190: c8c0 b5be cfa3 c23c 12c2 16bf d4cb 463d
000001a0: a54c 8cbe 888d ffbd 6ca7 85be 2acd f43e
000001b0: 1335 863f d06a 0b3e a8fe 463d ad74 babe
000001c0: 5134 e7be ee5d bb3f 6bec 883f 1a1e 443f
000001d0: a754 fe3e f781 91be b0f7 9c3e 06fb 66be
000001e0: 26e0 b2bf 6227 66bf 1dd8 3d3f bd89 aebf
000001f0: acfc 3fbf 20fb 043f 7bcb 27bf 29de 0abe
00000200: 67cf 0d3e c40a 6ebf e946 1dbf 411b 2fbf
00000210: 7615 083f ba76 ea3e cc1b 7e3e 17af 3c3e
00000220: 795a 37be 32dd 833f c3b4 12bf 08fb 17bf
00000230: 5006 be3b 4c41 503f cda8 19bf 9e1b 773f
00000240: 7769 033f a071 bd3d 1593 0f3f 4e99 b63c
00000250: 08a5 c53d f9b1 7e3f 6c7e 263f e953 8d3e
00000260: cb4f c3be 04bd 0e3d c513 6f3e c6cf e3bc
00000270: 7438 3dbf df40 bf3d a92e 1e3f 399a f33e
00000280: cda9 f73e e79d a6bc ef16 85be 1c63 4ebc
00000290: a775 063b 5441 c13e f95a c53c 01c6 693f
000002a0: 98c8 03bf 3014 e9ba 53df 08bd 3ca6 0d3c
000002b0: fa99 923d 0e54 093f 8022 3f3f 83e3 743f
000002c0: 3d34 383f ad0d 0d3e 4f95 e23d 47b9 e83c
000002d0: 6175 51be 9513 233e 91a0 b53f faac 853e
000002e0: f471 f63d 99d6 43bf b460 563e 3494 963e
000002f0: 0dc8 853e 66fa 723e 7f4b f53c 6cc1 1f3f
00000300: add1 78bf d227 0fbe 3b33 f23e 6c29 c73d
00000310: a5cf 803f 1af7 19bf 3be0 433f 5957 973e
0.11386266 0.11352848 -1.7608385 0.53322804 -0.9705911 -0.024526736 -1.1972553 -0.405847
-0.21920846 0.50333506 0.07285401 -0.15106317 -0.065696746 -0.26441315 -0.13660327 -0.49010208
-0.48178893 0.03428521 0.025437362 -0.14705075 -0.078421436 0.76101094 0.045168526 0.52730584
0.78906024 -0.007221495 0.3410317 -0.25338027 0.07298984 0.33755428 0.61384624 0.53126687
-0.09163555 0.061110243 0.11597309 -0.02011494 0.22906505 -0.052867282 -0.47495392 0.786956
0.62125 -1.2009887 1.0694728 -1.1450734 -1.4138658 0.15077925 -1.2356467 -0.2772341
0.25746047 -0.9068919 -1.2130206 -0.0940017 0.92307246 0.051649824 0.046699997 -0.22793086
0.05887315 0.03831971 -0.63996136 -0.35865974 -0.20260742 0.26851285 0.22852673 1.2380843
0.2331828 -0.67642146 0.26254696 0.2290828 0.04006936 0.69483835 0.19565384 0.25290886
-0.67744815 -0.0002524607 -0.1425902 0.16345893 -0.4009005 -0.019845312 -1.6626399 0.39865157
0.9522024 -0.9840151 -0.80213606 0.08390331 -1.0840497 1.1274768 -0.94285446 0.3464044
0.612446 -0.365443 -0.92222816 -0.08869798 0.9079694 0.28433985 0.6075498 0.5990079
-0.13893104 0.84626865 -0.02828081 -0.27903178 -0.35498643 0.02375975 -0.5888988 0.04853423
-0.27402225 -0.12478167 -0.26104295 0.47812778 1.0484947 0.13614964 0.048582703 -0.36417142
-0.45157102 1.463804 1.0697149 0.7660843 0.4967396 -0.28419468 0.3065772 -0.22556695
-1.3974655 -0.89903843 0.7415789 -1.3635784 -0.7499492 0.51945686 -0.6554486 -0.1356131
0.13848649 -0.9298518 -0.61436325 -0.6840096 0.53157747 0.45793706 0.24815291 0.18426166
-0.17905606 1.0301878 -0.5730707 -0.5936742 0.0057990924 0.81349635 -0.60023195 0.96526515
0.513328 0.09250188 0.56083804 0.022289898 0.09650618 0.99490315 0.65036654 0.2760308
-0.38146815 0.034848228 0.23347385 -0.027809035 -0.73914266 0.09338545 0.6178995 0.475786
0.48371735 -0.020338966 -0.2599406 -0.012596872 0.0020516904 0.37745154 0.02409123 0.91317755
-0.51477957 -0.0017782506 -0.033416104 0.00864559 0.07158275 0.5364388 0.7466202 0.95659655
0.7195471 0.13774748 0.110636346 0.02840866 -0.20454933 0.15925439 1.4189626 0.26108533
0.120334536 -0.76499325 0.20935327 0.29409945 0.2612919 0.23728332 0.029943226 0.62404513
-0.9719494 -0.13980034 0.4730471 0.097246975 1.0063368 -0.6014267 0.76514024 0.29558828

sequential/dense_2/MatMul f4 [4, 10]
00000000: 53aa 95bf 6792 2c3f 580c 08bf 2247 793f
00000010: fa80 87bf cc6b 6e3f 0334 89bf faf2 173e
00000020: b188 a4ba c663 013f 1c0b a7bd 77f3 91bf
00000030: f435 b13f 05ba cfbe 2da6 dc3e ffd7 833b
00000040: 5ca3 a23f 4012 aebf d943 cb3e 90c3 243f
00000050: f9e6 e6be 5ead c73e 413b 3ebf be68 773f
00000060: ea55 9dbf dad7 12c0 34c7 5abf f041 123f
00000070: fa3b 29c0 dd22 20bf 972c 863f 783b 11be
00000080: 040b 68bf 016c 9bbe f260 803e 0ad4 283f
00000090: 3d2d fcbe 5d24 103f 3178 90be 4b34 c8bf
-1.1692604 0.6741089 -0.53143835 0.97374165 -1.0586236 0.93133235 -1.0718998 0.14838782
-0.0012552944 0.5054287 -0.08156416 -1.1402425 1.384459 -0.4057161 0.43095532 0.0040235515
1.2706103 -1.359932 0.397002 0.64360905 -0.45098093 0.38999456 -0.74309164 0.966442
-1.2291844 -2.2944245 -0.8546021 0.5713186 -2.6442857 -0.625532 1.0482358 -0.14182842
-0.9064181 -0.30355838 0.25073963 0.65948546 -0.49253264 0.56305486 -0.282167 -1.5640959
